…
Using TensorFlow backend.
WARNING:tensorflow:From /home/benkotopka/.local/lib/python2.7/site-packages/tensorflow/python/util/deprecation.py:497: calling conv1d (from tensorflow.python.ops.nn_ops) with data_format=NHWC is deprecated and will be removed in a future version.
Instructions for updating:
`NHWC` for data_format is deprecated, use `NWC` instead
(1,)
(1,)
(356, 4)
_________________________________________________________________
Layer (type)                 Output Shape              Param #   
=================================================================
input_1 (InputLayer)         (None, 356, 4)            0         
_________________________________________________________________
conv1d_1 (Conv1D)            (None, 356, 128)          4224      
_________________________________________________________________
batch_normalization_1 (Batch (None, 356, 128)          512       
_________________________________________________________________
activation_1 (Activation)    (None, 356, 128)          0         
_________________________________________________________________
max_pooling1d_1 (MaxPooling1 (None, 178, 128)          0         
_________________________________________________________________
conv1d_2 (Conv1D)            (None, 178, 128)          131200    
_________________________________________________________________
batch_normalization_2 (Batch (None, 178, 128)          512       
_________________________________________________________________
activation_2 (Activation)    (None, 178, 128)          0         
_________________________________________________________________
max_pooling1d_2 (MaxPooling1 (None, 89, 128)           0         
_________________________________________________________________
conv1d_3 (Conv1D)            (None, 89, 128)           131200    
_________________________________________________________________
batch_normalization_3 (Batch (None, 89, 128)           512       
_________________________________________________________________
activation_3 (Activation)    (None, 89, 128)           0         
_________________________________________________________________
max_pooling1d_3 (MaxPooling1 (None, 44, 128)           0         
_________________________________________________________________
conv1d_4 (Conv1D)            (None, 44, 128)           131200    
_________________________________________________________________
batch_normalization_4 (Batch (None, 44, 128)           512       
_________________________________________________________________
activation_4 (Activation)    (None, 44, 128)           0         
_________________________________________________________________
max_pooling1d_4 (MaxPooling1 (None, 22, 128)           0         
_________________________________________________________________
conv1d_5 (Conv1D)            (None, 22, 128)           131200    
_________________________________________________________________
batch_normalization_5 (Batch (None, 22, 128)           512       
_________________________________________________________________
activation_5 (Activation)    (None, 22, 128)           0         
_________________________________________________________________
max_pooling1d_5 (MaxPooling1 (None, 11, 128)           0         
_________________________________________________________________
conv1d_6 (Conv1D)            (None, 11, 128)           131200    
_________________________________________________________________
batch_normalization_6 (Batch (None, 11, 128)           512       
_________________________________________________________________
activation_6 (Activation)    (None, 11, 128)           0         
_________________________________________________________________
max_pooling1d_6 (MaxPooling1 (None, 5, 128)            0         
_________________________________________________________________
flatten_1 (Flatten)          (None, 640)               0         
_________________________________________________________________
dense_1 (Dense)              (None, 128)               82048     
_________________________________________________________________
batch_normalization_7 (Batch (None, 128)               512       
_________________________________________________________________
activation_7 (Activation)    (None, 128)               0         
_________________________________________________________________
dense_2 (Dense)              (None, 128)           2018-07-18 01:26:41.682833: I tensorflow/stream_executor/cuda/cuda_gpu_executor.cc:898] successful NUMA node read from SysFS had negative value (-1), but there must be at least one NUMA node, so returning NUMA node zero
2018-07-18 01:26:41.683255: I tensorflow/core/common_runtime/gpu/gpu_device.cc:1344] Found device 0 with properties: 
name: Tesla K80 major: 3 minor: 7 memoryClockRate(GHz): 0.8235
pciBusID: 0000:00:04.0
…
2018-07-18 01:26:43.856215: I tensorflow/core/common_runtime/gpu/gpu_device.cc:911] Device interconnect StreamExecutor with strength 1 edge matrix:
2018-07-18 01:26:43.856290: I tensorflow/core/common_runtime/gpu/gpu_device.cc:917]      0 
2018-07-18 01:26:43.856318: I tensorflow/core/common_runtime/gpu/gpu_device.cc:930] 0:   N 
2018-07-18 01:26:43.867488: I tensorflow/core/common_runtime/gpu/gpu_device.cc:1041] Created TensorFlow device (/job:localhost/replica:0/task:0/device:GPU:0 with 10749 MB memory) -> physical GPU (device: 0, name: Tesla K80, pci bus id: 0000:00:04.0, compute capability: 3.7)
    16512     
_________________________________________________________________
batch_normalization_8 (Batch (None, 128)               512       
_________________________________________________________________
activation_8 (Activation)    (None, 128)               0         
_________________________________________________________________
dense_3 (Dense)              (None, 2)                 258       
=================================================================
Total params: 763,138
Trainable params: 761,090
Non-trainable params: 2,048
_________________________________________________________________
None
(1,)
(1,)
(356, 4)
_________________________________________________________________
Layer (type)                 Output Shape              Param #   
=================================================================
input_2 (InputLayer)         (None, 356, 4)            0         
_________________________________________________________________
conv1d_7 (Conv1D)            (None, 356, 128)          4224      
_________________________________________________________________
batch_normalization_9 (Batch (None, 356, 128)          512       
_________________________________________________________________
activation_9 (Activation)    (None, 356, 128)          0         
_________________________________________________________________
max_pooling1d_7 (MaxPooling1 (None, 178, 128)          0         
_________________________________________________________________
conv1d_8 (Conv1D)            (None, 178, 128)          131200    
_________________________________________________________________
batch_normalization_10 (Batc (None, 178, 128)          512       
_________________________________________________________________
activation_10 (Activation)   (None, 178, 128)          0         
_________________________________________________________________
max_pooling1d_8 (MaxPooling1 (None, 89, 128)           0         
_________________________________________________________________
conv1d_9 (Conv1D)            (None, 89, 128)           131200    
_________________________________________________________________
batch_normalization_11 (Batc (None, 89, 128)           512       
_________________________________________________________________
activation_11 (Activation)   (None, 89, 128)           0         
_________________________________________________________________
max_pooling1d_9 (MaxPooling1 (None, 44, 128)           0         
_________________________________________________________________
conv1d_10 (Conv1D)           (None, 44, 128)           131200    
_________________________________________________________________
batch_normalization_12 (Batc (None, 44, 128)           512       
_________________________________________________________________
activation_12 (Activation)   (None, 44, 128)           0         
_________________________________________________________________
max_pooling1d_10 (MaxPooling (None, 22, 128)           0         
_________________________________________________________________
conv1d_11 (Conv1D)           (None, 22, 128)           131200    
_________________________________________________________________
batch_normalization_13 (Batc (None, 22, 128)           512       
_________________________________________________________________
activation_13 (Activation)   (None, 22, 128)           0         
_________________________________________________________________
max_pooling1d_11 (MaxPooling (None, 11, 128)           0         
_________________________________________________________________
conv1d_12 (Conv1D)           (None, 11, 128)           131200    
_________________________________________________________________
batch_normalization_14 (Batc (None, 11, 128)           512       
_________________________________________________________________
activation_14 (Activation)   (None, 11, 128)           0         
_________________________________________________________________
max_pooling1d_12 (MaxPooling (None, 5, 128)            0         
_________________________________________________________________
flatten_2 (Flatten)          (None, 640)               0         
_________________________________________________________________
dense_4 (Dense)              (None, 128)               82048     
_________________________________________________________________
batch_normalization_15 (Batc (None, 128)               512       
_________________________________________________________________
activation_15 (Activation)   (None, 128)               0         
_________________________________________________________________
dense_5 (Dense)              (None, 128)               16512     
_________________________________________________________________
batch_normalization_16 (Batc (None, 128)               512       
_________________________________________________________________
activation_16 (Activation)   (None, 128)               0         
_________________________________________________________________
dense_6 (Dense)              (None, 2)                 258       
=================================================================
Total params: 763,138
Trainable params: 761,090
Non-trainable params: 2,048
_________________________________________________________________
None
(1,)
(1,)
(356, 4)
_________________________________________________________________
Layer (type)                 Output Shape              Param #   
=================================================================
input_3 (InputLayer)         (None, 356, 4)            0         
_________________________________________________________________
conv1d_13 (Conv1D)           (None, 356, 128)          4224      
_________________________________________________________________
batch_normalization_17 (Batc (None, 356, 128)          512       
_________________________________________________________________
activation_17 (Activation)   (None, 356, 128)          0         
_________________________________________________________________
max_pooling1d_13 (MaxPooling (None, 178, 128)          0         
_________________________________________________________________
conv1d_14 (Conv1D)           (None, 178, 128)          131200    
_________________________________________________________________
batch_normalization_18 (Batc (None, 178, 128)          512       
_________________________________________________________________
activation_18 (Activation)   (None, 178, 128)          0         
_________________________________________________________________
max_pooling1d_14 (MaxPooling (None, 89, 128)           0         
_________________________________________________________________
conv1d_15 (Conv1D)           (None, 89, 128)           131200    
_________________________________________________________________
batch_normalization_19 (Batc (None, 89, 128)           512       
_________________________________________________________________
activation_19 (Activation)   (None, 89, 128)           0         
_________________________________________________________________
max_pooling1d_15 (MaxPooling (None, 44, 128)           0         
_________________________________________________________________
conv1d_16 (Conv1D)           (None, 44, 128)           131200    
_________________________________________________________________
batch_normalization_20 (Batc (None, 44, 128)           512       
_________________________________________________________________
activation_20 (Activation)   (None, 44, 128)           0         
_________________________________________________________________
max_pooling1d_16 (MaxPooling (None, 22, 128)           0         
_________________________________________________________________
conv1d_17 (Conv1D)           (None, 22, 128)           131200    
_________________________________________________________________
batch_normalization_21 (Batc (None, 22, 128)           512       
_________________________________________________________________
activation_21 (Activation)   (None, 22, 128)           0         
_________________________________________________________________
max_pooling1d_17 (MaxPooling (None, 11, 128)           0         
_________________________________________________________________
conv1d_18 (Conv1D)           (None, 11, 128)           131200    
_________________________________________________________________
batch_normalization_22 (Batc (None, 11, 128)           512       
_________________________________________________________________
activation_22 (Activation)   (None, 11, 128)           0         
_________________________________________________________________
max_pooling1d_18 (MaxPooling (None, 5, 128)            0         
_________________________________________________________________
flatten_3 (Flatten)          (None, 640)               0         
_________________________________________________________________
dense_7 (Dense)              (None, 128)               82048     
_________________________________________________________________
batch_normalization_23 (Batc (None, 128)               512       
_________________________________________________________________
activation_23 (Activation)   (None, 128)               0         
_________________________________________________________________
dense_8 (Dense)              (None, 128)               16512     
_________________________________________________________________
batch_normalization_24 (Batc (None, 128)               512       
_________________________________________________________________
activation_24 (Activation)   (None, 128)               0         
_________________________________________________________________
dense_9 (Dense)              (None, 2)                 258       
=================================================================
Total params: 763,138
Trainable params: 761,090
Non-trainable params: 2,048
_________________________________________________________________
None
(1,)
(1,)
(356, 4)
_________________________________________________________________
Layer (type)                 Output Shape              Param #   
=================================================================
input_4 (InputLayer)         (None, 356, 4)            0         
_________________________________________________________________
conv1d_19 (Conv1D)           (None, 356, 128)          4224      
_________________________________________________________________
batch_normalization_25 (Batc (None, 356, 128)          512       
_________________________________________________________________
activation_25 (Activation)   (None, 356, 128)          0         
_________________________________________________________________
max_pooling1d_19 (MaxPooling (None, 178, 128)          0         
_________________________________________________________________
conv1d_20 (Conv1D)           (None, 178, 128)          131200    
_________________________________________________________________
batch_normalization_26 (Batc (None, 178, 128)          512       
_________________________________________________________________
activation_26 (Activation)   (None, 178, 128)          0         
_________________________________________________________________
max_pooling1d_20 (MaxPooling (None, 89, 128)           0         
_________________________________________________________________
conv1d_21 (Conv1D)           (None, 89, 128)           131200    
_________________________________________________________________
batch_normalization_27 (Batc (None, 89, 128)           512       
_________________________________________________________________
activation_27 (Activation)   (None, 89, 128)           0         
_________________________________________________________________
max_pooling1d_21 (MaxPooling (None, 44, 128)           0         
_________________________________________________________________
conv1d_22 (Conv1D)           (None, 44, 128)           131200    
_________________________________________________________________
batch_normalization_28 (Batc (None, 44, 128)           512       
_________________________________________________________________
activation_28 (Activation)   (None, 44, 128)           0         
_________________________________________________________________
max_pooling1d_22 (MaxPooling (None, 22, 128)           0         
_________________________________________________________________
conv1d_23 (Conv1D)           (None, 22, 128)           131200    
_________________________________________________________________
batch_normalization_29 (Batc (None, 22, 128)           512       
_________________________________________________________________
activation_29 (Activation)   (None, 22, 128)           0         
_________________________________________________________________
max_pooling1d_23 (MaxPooling (None, 11, 128)           0         
_________________________________________________________________
conv1d_24 (Conv1D)           (None, 11, 128)           131200    
_________________________________________________________________
batch_normalization_30 (Batc (None, 11, 128)           512       
_________________________________________________________________
activation_30 (Activation)   (None, 11, 128)           0         
_________________________________________________________________
max_pooling1d_24 (MaxPooling (None, 5, 128)            0         
_________________________________________________________________
flatten_4 (Flatten)          (None, 640)               0         
_________________________________________________________________
dense_10 (Dense)             (None, 128)               82048     
_________________________________________________________________
batch_normalization_31 (Batc (None, 128)               512       
_________________________________________________________________
activation_31 (Activation)   (None, 128)               0         
_________________________________________________________________
dense_11 (Dense)             (None, 128)               16512     
_________________________________________________________________
batch_normalization_32 (Batc (None, 128)               512       
_________________________________________________________________
activation_32 (Activation)   (None, 128)               0         
_________________________________________________________________
dense_12 (Dense)             (None, 2)                 258       
=================================================================
Total params: 763,138
Trainable params: 761,090
Non-trainable params: 2,048
_________________________________________________________________
None
(1,)
(1,)
(356, 4)
_________________________________________________________________
Layer (type)                 Output Shape              Param #   
=================================================================
input_5 (InputLayer)         (None, 356, 4)            0         
_________________________________________________________________
conv1d_25 (Conv1D)           (None, 356, 128)          4224      
_________________________________________________________________
batch_normalization_33 (Batc (None, 356, 128)          512       
_________________________________________________________________
activation_33 (Activation)   (None, 356, 128)          0         
_________________________________________________________________
max_pooling1d_25 (MaxPooling (None, 178, 128)          0         
_________________________________________________________________
conv1d_26 (Conv1D)           (None, 178, 128)          131200    
_________________________________________________________________
batch_normalization_34 (Batc (None, 178, 128)          512       
_________________________________________________________________
activation_34 (Activation)   (None, 178, 128)          0         
_________________________________________________________________
max_pooling1d_26 (MaxPooling (None, 89, 128)           0         
_________________________________________________________________
conv1d_27 (Conv1D)           (None, 89, 128)           131200    
_________________________________________________________________
batch_normalization_35 (Batc (None, 89, 128)           512       
_________________________________________________________________
activation_35 (Activation)   (None, 89, 128)           0         
_________________________________________________________________
max_pooling1d_27 (MaxPooling (None, 44, 128)           0         
_________________________________________________________________
conv1d_28 (Conv1D)           (None, 44, 128)           131200    
_________________________________________________________________
batch_normalization_36 (Batc (None, 44, 128)           512       
_________________________________________________________________
activation_36 (Activation)   (None, 44, 128)           0         
_________________________________________________________________
max_pooling1d_28 (MaxPooling (None, 22, 128)           0         
_________________________________________________________________
conv1d_29 (Conv1D)           (None, 22, 128)           131200    
_________________________________________________________________
batch_normalization_37 (Batc (None, 22, 128)           512       
_________________________________________________________________
activation_37 (Activation)   (None, 22, 128)           0         
_________________________________________________________________
max_pooling1d_29 (MaxPooling (None, 11, 128)           0         
_________________________________________________________________
conv1d_30 (Conv1D)           (None, 11, 128)           131200    
_________________________________________________________________
batch_normalization_38 (Batc (None, 11, 128)           512       
_________________________________________________________________
activation_38 (Activation)   (None, 11, 128)           0         
_________________________________________________________________
max_pooling1d_30 (MaxPooling (None, 5, 128)            0         
_________________________________________________________________
flatten_5 (Flatten)          (None, 640)               0         
_________________________________________________________________
dense_13 (Dense)             (None, 128)               82048     
_________________________________________________________________
batch_normalization_39 (Batc (None, 128)               512       
_________________________________________________________________
activation_39 (Activation)   (None, 128)               0         
_________________________________________________________________
dense_14 (Dense)             (None, 128)               16512     
_________________________________________________________________
batch_normalization_40 (Batc (None, 128)               512       
_________________________________________________________________
activation_40 (Activation)   (None, 128)               0         
_________________________________________________________________
dense_15 (Dense)             (None, 2)                 258       
=================================================================
Total params: 763,138
Trainable params: 761,090
Non-trainable params: 2,048
_________________________________________________________________
None
(1,)
(1,)
(356, 4)
_________________________________________________________________
Layer (type)                 Output Shape              Param #   
=================================================================
input_6 (InputLayer)         (None, 356, 4)            0         
_________________________________________________________________
conv1d_31 (Conv1D)           (None, 356, 128)          4224      
_________________________________________________________________
batch_normalization_41 (Batc (None, 356, 128)          512       
_________________________________________________________________
activation_41 (Activation)   (None, 356, 128)          0         
_________________________________________________________________
max_pooling1d_31 (MaxPooling (None, 178, 128)          0         
_________________________________________________________________
conv1d_32 (Conv1D)           (None, 178, 128)          131200    
_________________________________________________________________
batch_normalization_42 (Batc (None, 178, 128)          512       
_________________________________________________________________
activation_42 (Activation)   (None, 178, 128)          0         
_________________________________________________________________
max_pooling1d_32 (MaxPooling (None, 89, 128)           0         
_________________________________________________________________
conv1d_33 (Conv1D)           (None, 89, 128)           131200    
_________________________________________________________________
batch_normalization_43 (Batc (None, 89, 128)           512       
_________________________________________________________________
activation_43 (Activation)   (None, 89, 128)           0         
_________________________________________________________________
max_pooling1d_33 (MaxPooling (None, 44, 128)           0         
_________________________________________________________________
conv1d_34 (Conv1D)           (None, 44, 128)           131200    
_________________________________________________________________
batch_normalization_44 (Batc (None, 44, 128)           512       
_________________________________________________________________
activation_44 (Activation)   (None, 44, 128)           0         
_________________________________________________________________
max_pooling1d_34 (MaxPooling (None, 22, 128)           0         
_________________________________________________________________
conv1d_35 (Conv1D)           (None, 22, 128)           131200    
_________________________________________________________________
batch_normalization_45 (Batc (None, 22, 128)           512       
_________________________________________________________________
activation_45 (Activation)   (None, 22, 128)           0         
_________________________________________________________________
max_pooling1d_35 (MaxPooling (None, 11, 128)           0         
_________________________________________________________________
conv1d_36 (Conv1D)           (None, 11, 128)           131200    
_________________________________________________________________
batch_normalization_46 (Batc (None, 11, 128)           512       
_________________________________________________________________
activation_46 (Activation)   (None, 11, 128)           0         
_________________________________________________________________
max_pooling1d_36 (MaxPooling (None, 5, 128)            0         
_________________________________________________________________
flatten_6 (Flatten)          (None, 640)               0         
_________________________________________________________________
dense_16 (Dense)             (None, 128)               82048     
_________________________________________________________________
batch_normalization_47 (Batc (None, 128)               512       
_________________________________________________________________
activation_47 (Activation)   (None, 128)               0         
_________________________________________________________________
dense_17 (Dense)             (None, 128)               16512     
_________________________________________________________________
batch_normalization_48 (Batc (None, 128)               512       
_________________________________________________________________
activation_48 (Activation)   (None, 128)               0         
_________________________________________________________________
dense_18 (Dense)             (None, 2)                 258       
=================================================================
Total params: 763,138
Trainable params: 761,090
Non-trainable params: 2,048
_________________________________________________________________
None
(1,)
(1,)
(356, 4)
_________________________________________________________________
Layer (type)                 Output Shape              Param #   
=================================================================
input_7 (InputLayer)         (None, 356, 4)            0         
_________________________________________________________________
conv1d_37 (Conv1D)           (None, 356, 128)          4224      
_________________________________________________________________
batch_normalization_49 (Batc (None, 356, 128)          512       
_________________________________________________________________
activation_49 (Activation)   (None, 356, 128)          0         
_________________________________________________________________
max_pooling1d_37 (MaxPooling (None, 178, 128)          0         
_________________________________________________________________
conv1d_38 (Conv1D)           (None, 178, 128)          131200    
_________________________________________________________________
batch_normalization_50 (Batc (None, 178, 128)          512       
_________________________________________________________________
activation_50 (Activation)   (None, 178, 128)          0         
_________________________________________________________________
max_pooling1d_38 (MaxPooling (None, 89, 128)           0         
_________________________________________________________________
conv1d_39 (Conv1D)           (None, 89, 128)           131200    
_________________________________________________________________
batch_normalization_51 (Batc (None, 89, 128)           512       
_________________________________________________________________
activation_51 (Activation)   (None, 89, 128)           0         
_________________________________________________________________
max_pooling1d_39 (MaxPooling (None, 44, 128)           0         
_________________________________________________________________
conv1d_40 (Conv1D)           (None, 44, 128)           131200    
_________________________________________________________________
batch_normalization_52 (Batc (None, 44, 128)           512       
_________________________________________________________________
activation_52 (Activation)   (None, 44, 128)           0         
_________________________________________________________________
max_pooling1d_40 (MaxPooling (None, 22, 128)           0         
_________________________________________________________________
conv1d_41 (Conv1D)           (None, 22, 128)           131200    
_________________________________________________________________
batch_normalization_53 (Batc (None, 22, 128)           512       
_________________________________________________________________
activation_53 (Activation)   (None, 22, 128)           0         
_________________________________________________________________
max_pooling1d_41 (MaxPooling (None, 11, 128)           0         
_________________________________________________________________
conv1d_42 (Conv1D)           (None, 11, 128)           131200    
_________________________________________________________________
batch_normalization_54 (Batc (None, 11, 128)           512       
_________________________________________________________________
activation_54 (Activation)   (None, 11, 128)           0         
_________________________________________________________________
max_pooling1d_42 (MaxPooling (None, 5, 128)            0         
_________________________________________________________________
flatten_7 (Flatten)          (None, 640)               0         
_________________________________________________________________
dense_19 (Dense)             (None, 128)               82048     
_________________________________________________________________
batch_normalization_55 (Batc (None, 128)               512       
_________________________________________________________________
activation_55 (Activation)   (None, 128)               0         
_________________________________________________________________
dense_20 (Dense)             (None, 128)               16512     
_________________________________________________________________
batch_normalization_56 (Batc (None, 128)               512       
_________________________________________________________________
activation_56 (Activation)   (None, 128)               0         
_________________________________________________________________
dense_21 (Dense)             (None, 2)                 258       
=================================================================
Total params: 763,138
Trainable params: 761,090
Non-trainable params: 2,048
_________________________________________________________________
None
(1,)
(1,)
(356, 4)
_________________________________________________________________
Layer (type)                 Output Shape              Param #   
=================================================================
input_8 (InputLayer)         (None, 356, 4)            0         
_________________________________________________________________
conv1d_43 (Conv1D)           (None, 356, 128)          4224      
_________________________________________________________________
batch_normalization_57 (Batc (None, 356, 128)          512       
_________________________________________________________________
activation_57 (Activation)   (None, 356, 128)          0         
_________________________________________________________________
max_pooling1d_43 (MaxPooling (None, 178, 128)          0         
_________________________________________________________________
conv1d_44 (Conv1D)           (None, 178, 128)          131200    
_________________________________________________________________
batch_normalization_58 (Batc (None, 178, 128)          512       
_________________________________________________________________
activation_58 (Activation)   (None, 178, 128)          0         
_________________________________________________________________
max_pooling1d_44 (MaxPooling (None, 89, 128)           0         
_________________________________________________________________
conv1d_45 (Conv1D)           (None, 89, 128)           131200    
_________________________________________________________________
batch_normalization_59 (Batc (None, 89, 128)           512       
_________________________________________________________________
activation_59 (Activation)   (None, 89, 128)           0         
_________________________________________________________________
max_pooling1d_45 (MaxPooling (None, 44, 128)           0         
_________________________________________________________________
conv1d_46 (Conv1D)           (None, 44, 128)           131200    
_________________________________________________________________
batch_normalization_60 (Batc (None, 44, 128)           512       
_________________________________________________________________
activation_60 (Activation)   (None, 44, 128)           0         
_________________________________________________________________
max_pooling1d_46 (MaxPooling (None, 22, 128)           0         
_________________________________________________________________
conv1d_47 (Conv1D)           (None, 22, 128)           131200    
_________________________________________________________________
batch_normalization_61 (Batc (None, 22, 128)           512       
_________________________________________________________________
activation_61 (Activation)   (None, 22, 128)           0         
_________________________________________________________________
max_pooling1d_47 (MaxPooling (None, 11, 128)           0         
_________________________________________________________________
conv1d_48 (Conv1D)           (None, 11, 128)           131200    
_________________________________________________________________
batch_normalization_62 (Batc (None, 11, 128)           512       
_________________________________________________________________
activation_62 (Activation)   (None, 11, 128)           0         
_________________________________________________________________
max_pooling1d_48 (MaxPooling (None, 5, 128)            0         
_________________________________________________________________
flatten_8 (Flatten)          (None, 640)               0         
_________________________________________________________________
dense_22 (Dense)             (None, 128)               82048     
_________________________________________________________________
batch_normalization_63 (Batc (None, 128)   